data.pth (torch, 5482 bytes, 6 tensors)

l1.weight f4 [8, 54]
-0.21888788 0.15079424 -0.3803162 0.5333756 0.1267718 -0.63329154 -0.20803067 -0.4612026
-0.36492705 -0.4070454 0.5769195 0.6816688 0.20727421 0.75607246 0.22484508 0.5959331
0.47227135 -0.63116384 -0.21210574 0.7090527 -0.11625929 0.7620933 0.82307214 1.02308
0.5121385 0.46003333 -0.3335074 0.30332932 -0.20778717 0.27160805 -0.3448456 0.62277573
-0.074102566 -0.26761666 0.23354168 0.7242248 -0.264311 -0.26868024 -0.31696668 -0.28119332
-0.22989199 -0.33548555 0.5660855 0.09546158 0.42532068 0.20784627 -0.6333785 -0.29843745
0.27314723 -0.24293248 0.6442186 -0.20920442 -0.23034815 -0.058451105 -0.22723913 -0.31935573
-0.39044258 0.3432264 0.31773296 -0.18644376 -0.1519046 -0.2745941 -0.44089773 -0.28749862
0.4030936 -0.010013844 0.22506273 -0.17923608 -0.24435537 -0.10001127 0.4205817 -0.16993423
0.6085046 0.51602924 -0.2319054 0.48352906 0.6772299 0.5118085 -0.09576913 0.33941132
0.63061875 -0.2181782 0.3309619 -0.10629834 -0.0068813665 -0.18340695 -0.05836449 -0.4315046
-0.11863362 -0.06582545 0.31692082 -0.47365522 -0.15221484 -0.17608081 0.12831044 0.5283538
0.4581787 -0.13930634 -0.26130417 -0.07545659 -0.58468026 -0.1257676 0.35271898 0.60442626
-0.08874048 0.47400025 -0.009066131 0.012124036 0.40128708 -0.08178988 0.37913296 0.17758296
0.042332135 0.81908864 0.20563072 0.19272842 0.17986973 0.20171885 0.17665757 -0.26424843
-0.28231215 -0.3423335 -0.22320408 -0.10893584 0.027045267 0.9449639 -0.15940155 0.0006031908
0.31866902 -0.021880656 -0.011142288 -0.25021684 0.22412366 0.0819699 -0.30923942 -0.38082185
-0.1072174 -0.3672723 0.5598836 -0.36076525 0.3702947 0.42607233 -0.34209046 -0.30342612
-0.112649634 0.16591263 0.2776426 0.26165432 0.71421593 -0.35451883 -0.19504552 -0.2596059
0.19068374 -0.1409008 0.5398327 0.17799121 -0.09792308 -0.30076 -0.22279166 -0.19884518
0.18288077 0.29526457 0.36509037 -0.20190156 0.5372047 0.10162375 0.42231908 0.27427122
0.51807594 0.47392637 0.39377296 0.55998516 -0.02899563 -0.3154398 0.14178656 -0.2776646
-0.08315745 -0.16081585 0.09289492 0.32995975 -0.26638576 -0.19773775 0.1724095 -0.056005117
-0.02591164 -0.18921758 0.24005157 0.044365454 -0.36727703 -0.41290203 -0.12279858 -0.30840322
0.1293839 -0.10383732 0.33564815 0.519502 -0.25713968 -0.19610883 -0.015185694 0.40420327
0.44570267 0.491373 0.27583587 -0.48428282 -0.2726601 -0.04641292 0.42166302 -0.069378965
0.13519832 0.11693107 0.109506585 -0.49064654 -0.11144882 -0.22333434 0.36381146 0.37710223
0.06742783 -0.17690846 -0.1641469 0.26888502 -0.11870575 0.84327054 -0.13906516 0.09280769
-0.25127926 0.06344109 0.3024882 -0.21777304 -0.2123234 -0.21414824 -0.24593087 -0.020320449
0.28590655 0.8388108 0.032811295 0.5202017 -0.2336487 0.20781521 0.39402068 0.07841942
0.01749712 0.42772695 -0.27917176 -0.22852735 -0.04719251 -0.10752409 0.44617027 -0.18923087
0.31538066 -0.2695553 -0.2122645 -0.24447529 -0.0908401 -0.1663676 -0.16867179 0.05901351
00000000: 2524 60be ce69 1a3e ceb8 c2be 4e8b 083f
00000010: 77d0 013e 651f 22bf fe05 55be bf22 ecbe
00000020: b8d7 babe 4168 d0be ffb0 133f d981 2e3f
00000030: b13f 543e f78d 413f ca3d 663e 128f 183f
00000040: 8dcd f13e f493 21bf 3f32 59be 7a84 353f
00000050: 5a19 eebd 8c18 433f dbb4 523f 49f4 823f
00000060: 821b 033f 7d89 eb3e 7bc1 aabe fb4d 9b3e
00000070: 29c6 54be 3610 8b3e 9a8f b0be 3b6e 1f3f
00000080: 16c3 97bd 0d05 89be 8d25 6f3e cc66 393f
00000090: c553 87be 7590 89be 7549 a2be 92f8 8fbe
000000a0: ce68 6bbe c3c4 abbe fbea 103f 5c81 c33d
000000b0: a2c3 d93e a7d5 543e 1825 22bf cbcc 98be
000000c0: f4d9 8b3e 4bc3 78be 83eb 243f af39 56be
000000d0: 63e0 6bbe 6d6a 6fbd 60b1 68be 9882 a3be
000000e0: 17e8 c7be 5fbb af3e e5ad a23e 1deb 3ebe
000000f0: e18c 1bbe 9997 8cbe 59bd e1be 0533 93be
00000100: 4962 ce3e 1b11 24bc d876 663e aa89 37be
00000110: 4b38 7abe b5d2 ccbd 7c56 d73e 3d03 2ebe
00000120: f5c6 1b3f 7e1a 043f 9c78 6dbe 1f91 f73e
00000130: f05e 2d3f e205 033f 9b22 c4bd 52c7 ad3e
00000140: 3b70 213f 1b6a 5fbe d773 a93e f2b2 d9bd
00000150: 167d e1bb 08cf 3bbe 9a0f 6fbd 2cee dcbe
00000160: 2ff6 f2bd 7ecf 86bd 7243 a23e f082 f2be
00000170: 35de 1bbe 874e 34be d063 033e 3242 073f
00000180: 6696 ea3e 52a6 0ebe a9c9 85be fc88 9abd
00000190: 9bad 15bf 39c9 00be 9597 b43e aebb 1a3f
000001a0: 92bd b5bd 29b0 f23e 1c8a 14bc e5a3 463c
000001b0: 8075 cd3e 7481 a7bd b71d c23e 4fd8 353e
000001c0: 7664 2d3d cbaf 513f dc90 523e 995a 453e
000001d0: c52f 383e 638f 4e3e b9e5 343e 924b 87be
000001e0: 388b 90be 5646 afbe 9c8f 64be c119 dfbd
000001f0: 098e dd3c 27e9 713f 293a 23be 731f 1e3a
00000200: 9628 a33e 103f b3bc 258e 36bc 6c1c 80be
00000210: ac80 653e d6df a73d a154 9ebe 15fb c2be
00000220: cc94 dbbd 1d0b bcbe 8854 0f3f 39b6 b8be
00000230: 4497 bd3e 2726 da3e 7b26 afbe ab5a 9bbe
00000240: dab4 e6bd 00e5 293e 2c27 8e3e 8ef7 853e
00000250: dbd6 363f 7e83 b5be 03ba 47be 11eb 84be
00000260: 9942 433e 4d48 10be 7a32 0a3f 5443 363e
00000270: e58b c8bd 37fd 99be 7f23 64be 129e 4bbe
00000280: 1945 3b3e eb2c 973e 20ed ba3e 48bf 4ebe
00000290: 3f86 093f 1d20 d03d 353a d83e 476d 8c3e
000002a0: a0a0 043f 7aa6 f23e 9c9c c93e 305b 0f3f
000002b0: 3e88 edbc 5381 a1be 7f30 113e 0e2a 8ebe
000002c0: 744e aabd e9ac 24be b13f be3d 7cf0 a83e
000002d0: b763 88be c47b 4abe 1e8c 303e 9f65 65bd
000002e0: a644 d4bc 41c2 41be 14d0 753e 8db8 353d
000002f0: bc0b bcbe e567 d3be d27d fbbd 07e7 9dbe
00000300: 377d 043e a9a8 d4bd 13da ab3e 15fe 043f
00000310: d0a7 83be c1d0 48be 6bcd 78bc bbf3 ce3e
00000320: 2433 e43e 3e95 fb3e 5c3a 8d3e ebf3 f7be
00000330: 1b9a 8bbe 791b 3ebd 37e4 d73e 8f16 8ebd
00000340: 6e71 0a3e 8f79 ef3d fd44 e03d 0636 fbbe
00000350: 473f e4bd c2b1 64be 7f45 ba3e 8b13 c13e
00000360: 9a17 8a3d 7e27 35be 2016 28be 4cab 893e
00000370: 001c f3bd 94e0 573f 1967 0ebe f511 be3d
00000380: ada7 80be 67ed 813d bcdf 9a3e e5ff 5ebe
00000390: 4e6b 59be ad49 5bbe 4dd5 7bbe 1277 a6bc
000003a0: 5862 923e 4ebc 563f 2365 063d f02b 053f
000003b0: 9b41 6fbe 83cd 543e 14bd c93e 5c9a a03d
000003c0: 1f56 8f3c 07ff da3e 9aef 8ebe 1303 6abe
000003d0: ef4c 41bd 9735 dcbd 6e70 e43e bdc5 41be
000003e0: 9379 a13e 2703 8abe dd5b 59be bb57 7abe
000003f0: 600a babd 455c 2abe 4cb8 2cbe 26b8 713d

l1.bias f4 [8]
0.6332678 0.5846872 0.957656 0.4560998 0.7674844 0.5448184 0.5733259 0.92441183
00000000: d71d 223f 0fae 153f f228 753f ea85 e93e
00000010: dc79 443f 3879 0b3f 7cc5 123f 41a6 6c3f

l2.weight f4 [8, 8]
0.047294434 0.7366782 0.5471758 1.1419733 0.38565332 1.3139621 0.022851044 -0.98904055
-0.033422142 0.23049901 0.70570046 0.58799976 1.0290732 0.79641944 0.46069902 -0.8933668
0.049385324 1.1708279 -0.30891442 -0.1268328 0.41417357 0.9017687 1.1136627 -0.06074637
0.15361479 -0.11576551 -0.25305587 0.2218068 0.24870333 -0.19708288 -0.23779324 -0.2796427
-0.8128542 0.13359804 0.65280294 -0.43574566 0.15471251 -1.2388945 0.5555086 1.5062863
1.1973927 0.45833147 -0.62820786 -0.38741297 -0.70560837 0.36307544 0.26704484 0.7368104
0.47255105 1.0557264 0.38853756 -0.564908 1.1443427 0.515918 1.4260504 -0.13953051
-1.3680195 -0.6893986 1.2061942 1.3635759 0.7782106 -0.17398733 -0.22061406 0.3524295
00000000: cfb7 413d f196 3c3f b713 0c3f 2e2c 923f
00000010: 5a74 c53e e92f a83f 1d32 bb3c c331 7dbf
00000020: a8e5 08bd ef07 6c3e c9a8 343f 2787 163f
00000030: acb8 833f 25e2 4b3f bee0 eb3e b0b3 64bf
00000040: 4448 4a3d b0dd 953f 082a 9ebe 75e0 01be
00000050: 8f0e d43e 50da 663f 808c 8e3f 30d1 78bd
00000060: 324d 1d3e 7816 edbd 8a90 81be 5221 633e
00000070: 16ac 7e3e 18d0 49be 1280 73be 542d 8fbe
00000080: 3617 50bf edcd 083e 181e 273f 0e1a dfbe
00000090: f56c 1e3e 1894 9ebf d035 0e3f fdcd c03f
000000a0: 2a44 993f 6caa ea3e 3bd2 20bf fe5a c6be
000000b0: c0a2 34bf 06e5 b93e 1aba 883e 9b9f 3c3f
000000c0: 36f2 f13e 0b22 873f 65ee c63e d09d 10bf
000000d0: d279 923f 3413 043f d288 b63f 16e1 0ebe
000000e0: 431b afbf 6d7c 30bf 9264 9a3f a889 ae3f
000000f0: cf38 473f bc29 32be a7e8 61be a471 b43e

l2.bias f4 [8]
0.25165343 0.16091904 -0.0139176035 -0.2371282 0.9067087 0.3089311 -0.33686045 0.5754675
00000000: b8d8 803e f6c7 243e a906 64bc bcd1 72be
00000010: 101e 683f 382c 9e3e f978 acbe d751 133f

l3.weight f4 [7, 8]
-0.65012926 -0.5887584 -0.4987026 0.24272886 -1.1948831 0.6927225 0.3251557 -0.6805091
-0.76591194 -0.753378 -1.1209079 -0.2427055 0.77620345 0.16643853 -1.0416932 -1.1685455
-0.095894836 0.15752275 -0.113527395 -0.0049774945 -0.21721265 -1.7025323 0.49465808 0.26934838
0.471859 0.1960933 0.56665635 0.14676937 -1.4459087 -0.88547367 0.73734486 -0.76504755
-0.7203938 -0.96030104 0.8110537 -0.34602115 0.18497363 -0.91954035 0.46072075 -1.1017623
0.8848105 0.20012729 -0.39507452 0.0040882826 -1.2769885 -0.6496141 -1.3265746 0.7004423
-1.097475 -0.61002773 -1.2649505 0.12918767 0.6403415 -1.2098446 -1.3389771 0.74468446
00000000: df6e 26bf dfb8 16bf f255 ffbe ea8d 783e
00000010: eef1 98bf 4356 313f cf7a a63e d835 2ebf
00000020: ce12 44bf 61dd 40bf e979 8fbf ca87 78be
00000030: 45b5 463f dd6e 2a3e 3456 85bf e692 95bf
00000040: 8364 c4bd a54d 213e 0d81 e8bd 401a a3bb
00000050: fe6c 5ebe 94ec d9bf d343 fd3e 08e8 893e
00000060: 8197 f13e afcc 483e 6410 113f b64a 163e
00000070: 8913 b9bf 67ae 62bf a2c2 3c3f 28da 43bf
00000080: ba6b 38bf 4ad6 75bf 37a1 4f3f af29 b1be
00000090: ba69 3d3e ff66 6bbf 97e3 eb3e 8c06 8dbf
000000a0: f182 623f 2bee 4c3e 3547 cabe 00f7 853b
000000b0: 5c74 a3bf 1c4d 26bf 32cd a9bf 3050 333f
000000c0: 107a 8cbf c72a 1cbf e6e9 a1bf c649 043e
000000d0: 6ced 233f 30dc 9abf 9a63 abbf a4a3 3e3f

l3.bias f4 [7]
0.3476695 -0.21156032 -0.38656542 -0.09615978 -0.3681382 -0.10173199 -0.13827556
00000000: bd01 b23e 45a3 58be e7eb c5be 6bef c4bd
00000010: 9c7c bcbe dd58 d0bd 1c98 0dbe
